logs/rsl_rl/spot_flat/2024-07-17_15-20-56/exported/policy.onnx (onnx, 764693 bytes, 8 tensors)

actor.0.weight f4 [512, 48]
-0.038396172 0.5387649 -0.36268857 -0.08712486 0.03868419 0.089654855 -0.3373135 1.3474748
0.15857719 0.1483071 -0.04701165 -0.2091702 -0.02111664 0.08530936 0.0550058 -0.41052485
-0.13752235 0.23052943 -0.19690813 -0.07574537 -0.6392474 -0.03609611 -0.41295186 -0.14036305
-0.02056655 0.087282024 0.09773065 -0.13466473 -0.0061439187 -0.035109434 -0.015245896 -0.07477263
0.00550863 0.028034683 -0.013813122 -0.084234856 -0.12034792 -0.0017168237 -0.00019218394 -0.07908547
0.094367824 0.0083896 0.012938953 0.022572618 -0.103591114 0.01972106 0.22766177 0.040956207
0.0019563108 -0.22213617 0.19126312 -0.13822702 -0.04184141 -0.023692908 2.0097563 -0.1528976
0.10474834 -0.012103451 0.20266552 0.1509104 0.4658718 -0.29607692 0.3156305 -0.10925907
-0.18591008 0.02196187 0.13662402 -0.00997025 -0.1266059 0.017236115 -0.26032767 -0.45219436
-0.10321071 0.023666987 -0.006234955 -0.056865778 -0.061862156 0.047741182 -0.12863107 0.06026242
0.0875687 0.008127537 -0.13921298 0.023498714 0.05879124 -0.0477014 0.03687241 0.17874272
-0.025918597 -0.06501168 0.14154223 -0.054774716 0.1121253 0.113598265 0.12140329 0.00022974059
0.19506407 0.33707517 0.27995744 -0.12505448 0.2502632 0.27848712 0.39454967 0.9247494
-0.29238182 -0.117171034 -0.15038279 -0.036788102 -0.33367732 -0.22335352 -0.48956415 -0.021296775
0.23026146 -0.10070881 0.110248454 0.32208157 0.5448917 0.21951708 0.061309136 0.12860695
0.07320353 -0.053763457 0.11405006 -0.20120922 -0.06818863 -0.044263486 0.004593757 0.08724738
0.091232955 0.03625663 -0.010771257 0.051480293 -0.1465412 -0.11506685 -0.031686205 0.11989911
-0.0022977628 0.10573707 0.09859147 0.03598352 -0.121450506 -0.21901496 0.06205382 -0.13339546
0.029913098 0.22750174 -0.42104793 -0.19724783 0.25997788 -0.2643142 1.2141811 1.1898698
0.14724877 0.044639323 -0.25735408 0.2813163 0.264967 -0.5616571 -0.28203273 0.09298659
0.11984343 0.25083798 0.10356681 0.1624663 0.024601018 -0.024335118 0.05679868 -0.12242807
-0.017870136 -0.08856085 -0.015324075 0.018236702 -0.020297887 0.09402998 -0.012837845 -0.001028112
0.10294426 0.093479894 0.05631794 0.09463549 -0.029547201 0.15173376 -0.07285737 -0.13727508
-0.09366625 0.15197603 -0.044198062 0.062500924 -0.1132361 0.22911309 0.116927125 -0.13461046
0.08327122 0.56459075 0.026409851 0.0706203 -0.0010677787 0.22680719 0.007663534 1.9810251
-0.12374786 -0.12370556 -0.120780304 -0.12854092 -0.4224531 -0.101562075 -0.6438131 0.06338387
0.31993917 0.16927327 0.07779852 0.19678357 -0.37053335 0.056317084 -0.3210503 -0.15811703
0.0366827 0.085356265 -0.0049387407 -0.089177154 -0.051824816 0.014425798 -0.03923483 0.015335893
-0.029567348 0.04844913 0.06468501 0.0096637355 -0.12785044 -0.074420914 0.12311669 -0.036224846
0.027633458 -0.037055295 0.047918066 0.033300303 -0.016485268 0.018603057 -0.059509233 -0.0054765157
0.052991625 -0.0075759348 0.09517797 -0.1893594 -0.08132004 0.034515366 -0.5324108 1.9736578
-0.094553635 0.10167851 0.17020392 -0.31650975 -0.7267455 -0.52296346 -0.7373466 -0.5496716
00000000: 4e45 1dbd 7fec 093f 51b2 b9be 856e b2bd
00000010: 5073 1e3d f79c b73d 5bb4 acbe 0e7a ac3f
00000020: 0f62 223e d1dd 173e 4a8f 40bd b730 56be
00000030: cefc acbc acb6 ae3d c34d 613d 5030 d2be
00000040: a9d2 0cbe e80f 6c3e 49a2 49be 6320 9bbd
00000050: b8a5 23bf 84d9 13bd 6d6e d3be 55bb 0fbe
00000060: 2e7b a8bc ebc0 b23d 0227 c83d 8de5 09be
00000070: ed52 c9bb e9ce 0fbd ecc9 79bc 6522 99bd
00000080: bd81 b43b fea8 e53c 6f50 62bc 5383 acbd
00000090: f878 f6bd 0b07 e1ba fc84 49b9 90f7 a1bd
000000a0: eb43 c13d 8874 093c e7fd 533c 36ea b83c
000000b0: 9427 d4bd 0f8e a13c 2b20 693e b2c1 273d
000000c0: 7335 003b aa77 63be 7bda 433e 628b 0dbe
000000d0: e661 2bbd a117 c2bc d99f 0040 3091 1cbe
000000e0: 4c86 d63d 8e4d 46bc 8d87 4f3e 4288 1a3e
000000f0: c086 ee3e 6597 97be 529a a13e 38c3 dfbd
00000100: 365f 3ebe 61e9 b33c 2be7 0b3e 425a 23bc
00000110: faa4 01be c132 8d3c ab49 85be 0586 e7be
00000120: 2360 d3bd 45e1 c13c 984e ccbb 17ec 68bd
00000130: 2c63 7dbd 428c 433d ddb7 03be bad5 763d
00000140: 3857 b33d 5c29 053c d98d 0ebe 6080 c03c
00000150: 15cf 703d 8b62 43bd 8607 173d 5508 373e
00000160: 3d53 d4bc d824 85bd 72f0 103e 745b 60bd
00000170: f3a1 e53d 35a6 e83d 4aa2 f83d 85e6 7039
00000180: e0be 473e 1e95 ac3e 9556 8f3e 480e 00be
00000190: 8022 803e dd95 8e3e 6a02 ca3e 60bc 6c3f
000001a0: 12b3 95be 5ef7 efbd f2fd 19be 1faf 16bd
000001b0: c1d7 aabe c9b6 64be 27a8 fabe 9376 aebc
000001c0: a9c9 6b3e 6c40 cebd f1c9 e13d e0e7 a43e
000001d0: 067e 0b3f 16c9 603e 4a1f 7b3d 8ab1 033e
000001e0: bbeb 953d 1237 5cbd 1493 e93d ca09 4ebe
000001f0: 7ba6 8bbd a14d 35bd 3a87 963b c1ae b23d
00000200: 58d8 ba3d d581 143d ed79 30bc 00dd 523d
00000210: e50e 16be 2ba8 ebbd 65c9 01bd aa8d f53d
00000220: 1096 16bb ad8c d83d 53ea c93d 7563 133d
00000230: 0bbb f8bd 7545 60be 252c 7e3d d298 08be
00000240: 500c f53c 37f6 683e 9893 d7be 56fb 49be
00000250: d21b 853e 3154 87be 496a 9b3f a74d 983f
00000260: 62c8 163e b9d7 363d eac3 83be b108 903e
00000270: c1a9 873e c2c8 0fbf 9866 90be c16f be3d
00000280: 7970 f53d d66d 803e d61a d43d 915d 263e
00000290: 1388 c93c 715a c7bc bca5 683d 91bb fabd
000002a0: 6464 92bc 645f b5bd d411 7bbc 2365 953c
000002b0: c147 a6bc ca92 c03d d355 52bc b7c1 86ba
000002c0: 71d4 d23d 6372 bf3d a4ad 663d 40d0 c13d
000002d0: f90c f2bc 1860 1b3e 3f36 95bd d791 0cbe
000002e0: 17d4 bfbd 9b9f 1b3e 0709 35bd 7c00 803d
000002f0: 54e8 e7bd 9f9c 6a3e 7d77 ef3d 53d7 09be
00000300: 1a8a aa3d 0589 103f 7959 d83c 60a1 903d
00000310: b5f4 8bba 2540 683e 621e fb3b 3b92 fd3f
00000320: 856f fdbd 5759 fdbd aa5b f7bd 3ba0 03be
00000330: c64b d8be c7ff cfbd efd0 24bf 67cf 813d
00000340: 11cf a33e f955 2d3e d554 9f3d a281 493e
00000350: 8cb6 bdbe beac 663d b460 a4be 6ee9 21be
00000360: 9940 163d 44cf ae3d 29d5 a1bb 83a2 b6bd
00000370: 4246 54bd 2f5a 6c3c b3b4 20bd 6643 7b3c
00000380: 3937 f2bc 9872 463d 9379 843d a554 1e3c
00000390: 3aeb 02be fe69 98bd 9a24 fc3d 8160 14bd
000003a0: 905f e23c 4bc7 17bd bc45 443d e665 083d
000003b0: 1d0c 87bc 7065 983c f4bf 73bd 5874 b3bb
000003c0: bf0d 593d 8c3f f8bb abec c23d 6ee7 41be
000003d0: 1f8b a6bd fc5f 0d3d 134c 08bf d2a0 fc3f
000003e0: 56a5 c1bd d33c d03d f049 2e3e 910d a2be
000003f0: fe0b 3abf efe0 05bf bfc2 3cbf 47b7 0cbf

actor.0.bias f4 [512]
-0.04068102 -0.041405827 0.17060612 -0.17569113 0.21243832 0.03330547 0.14308779 0.05915309
-0.25098094 -0.03938806 -0.10694213 -0.009077667 -0.14195426 0.089989714 0.22511269 -0.05725245
-0.035376165 0.13865921 0.012502289 -0.017900432 -0.10651809 -0.08844062 0.12716968 0.06723174
-0.071386665 -0.22096448 0.16424187 0.1737846 -0.07805694 -0.20973253 -0.11576574 0.14487948
-0.09382966 0.028983744 0.06727272 0.05161203 -0.018172493 -0.11872512 0.062105816 -0.04235934
-0.14503986 -0.044160027 0.035272118 -0.16336285 -0.08386188 0.057386845 0.13395111 0.045191504
0.021650925 0.2042505 -0.06411249 -0.31688148 -0.25450543 -0.15134872 0.08495527 0.013086574
0.007891919 -0.00047201247 0.018431567 -0.20361422 -0.25744042 -0.018388223 -0.08876862 0.0051891324
0.21748973 0.11086407 -0.10261127 0.06614063 0.19139913 0.034380402 -0.05402413 -0.051850915
0.01810929 0.14834149 -0.018646501 -0.15738544 0.13553387 0.2234499 -0.1836337 -0.14596325
0.21907361 0.12021763 -0.001018008 -0.18675296 -0.114268236 -0.04794085 -0.120690726 0.11304508
-0.30919284 0.14558683 -0.19229247 -0.04726954 0.1948655 0.11894706 0.14369927 -0.059930105
-0.01450986 0.090234436 0.025750581 0.15094347 -0.015482411 0.030594615 0.056698125 0.31987643
-0.07298171 0.33150053 -0.17533611 0.19978437 -0.14536436 -0.17103527 -0.0534206 -0.040056825
0.11165603 -0.01958565 0.09300356 -0.2061047 0.113923535 0.12261019 -0.14111416 -0.24958467
-0.23805514 0.07445174 0.12622139 0.17867382 0.01970422 0.14781281 -0.19128 -0.23615701
-0.0890908 -0.15962672 0.06250943 -0.08536228 -0.2708317 -0.20638736 -0.044189326 -0.03319833
0.0503107 0.20548117 -0.108090475 0.124913916 0.11328149 0.06392081 -0.14976573 -0.21184655
-0.07415305 0.10147143 -0.15844473 -0.030626586 -0.07197336 -0.15126161 -0.20203787 -0.18945743
0.099352 0.15713748 -0.13736108 0.22587541 0.2168943 -0.19928315 -0.043509983 0.2313828
0.11919243 -0.108333565 -0.0751852 0.20605026 0.04117421 -0.34986487 0.09130318 -0.02387317
0.14440167 0.053459685 0.181994 -0.044840265 0.011705879 0.13900967 -0.11314647 0.047772825
-0.17603993 0.12765586 0.02981891 0.039641175 0.077643834 0.19047384 0.043974493 0.16272296
-0.050905332 -0.049952727 -0.24064234 -0.20158191 -0.18317255 0.095954426 0.045338623 0.033653226
0.24852535 0.11232887 -0.2567538 -0.08702996 -0.09015918 0.052786212 0.11383088 -0.09782745
0.00461446 -0.20203385 0.27699545 0.18266761 0.09120591 -0.061549187 -0.20575145 -0.0911884
0.20117743 -0.15878811 -0.029235726 0.032339506 0.11736991 -0.20743687 -0.15390214 0.0066476343
-0.20204139 -0.06712742 0.11638908 0.08939304 -0.16870856 0.243029 0.04631762 0.047867298
0.068134725 -0.025069593 -0.12408368 -0.17184514 0.12368772 0.039921273 -0.10620598 0.08110899
0.0072328215 -0.0051916256 0.09203754 0.07275137 0.077549815 -0.14740449 -0.23731828 -0.24399067
0.09638242 0.042488813 0.14510123 0.032455068 -0.18230096 0.25322577 -0.06028694 -0.034605034
-0.05528241 -0.03548687 0.009976488 -0.19299692 -0.24851 -0.22272475 -0.022059236 -0.10428989
00000000: 24a1 26bd 2899 29bd 5fb3 2e3e 60e8 33be
00000010: 6e89 593e 516b 083d 9b85 123e 834a 723d
00000020: 9380 80be 6055 21bd 7a04 dbbd 7fba 14bc
00000030: 755c 11be 874c b83d f183 663e 8c81 6abd
00000040: 99e6 10bd aefc 0d3e 67d6 4c3c eda3 92bc
00000050: 2826 dabd 5b20 b5bd c538 023e cbb0 893d
00000060: 2c33 92bd 8344 62be 052f 283e 97f4 313e
00000070: 51dc 9fbd 20c4 56be 9716 edbd 495b 143e
00000080: c429 c0bd 516f ed3c 48c6 893d 2367 533d
00000090: 7bde 94bc 2826 f3bd ab62 7e3d fd80 2dbd
000000a0: 5485 14be 25e1 34bd 7f79 103d 9748 27be
000000b0: c7bf abbd 780e 6b3d 7b2a 093e ba1a 393d
000000c0: 485d b13c 0b27 513e 694d 83bd 4a3e a2be
000000d0: 894e 82be 29fb 1abe 07fd ad3d 1269 563c
000000e0: 1c4d 013c 7178 f7b9 ccfd 963c 3f80 50be
000000f0: 3bcf 83be e6a2 96bc 52cc b5bd 9909 aa3b
00000100: a1b5 5e3e b40c e33d dc25 d2bd bd74 873d
00000110: 22fe 433e 77d2 0c3d 6848 5dbd a061 54bd
00000120: ef59 943c d5e6 173e 8cc0 98bc a629 21be
00000130: 64c9 0a3e 0dd0 643e 790a 3cbe 6477 15be
00000140: d554 603e a934 f63d ae6e 85ba 2b3c 3fbe
00000150: 7705 eabd a05d 44bd b32c f7bd 2e84 e73d
00000160: 864e 9ebe b714 153e 51e8 44be b59d 41bd
00000170: d28a 473e 849a f33d e725 133e 4579 75bd
00000180: c4ba 6dbc d5cc b83d e2f2 d23c ed90 1a3e
00000190: f0a9 7dbc 8fa1 fa3c 4b3c 683d d8c6 a33e
000001a0: 6f77 95bd 70ba a93e 4f8b 33be 4694 4c3e
000001b0: 65da 14be df23 2fbe 8fcf 5abd a012 24bd
000001c0: ebab e43d 1672 a0bc a778 be3d 1c0d 53be
000001d0: be50 e93d 0d1b fb3d 3b80 10be 2093 7fbe
000001e0: bac4 73be 277a 983d 2e40 013e 45f6 363e
000001f0: bf6a a13c 3e5c 173e e8de 43be 25d3 71be
00000200: 3d75 b6bd 3075 23be f204 803d 6bd2 aebd
00000210: 74aa 8abe 3557 53be deff 34bd f9fa 07bd
00000220: 9812 4e3d a869 523e 8a5e ddbd ded2 ff3d
00000230: 2000 e83d eae8 823d 305c 19be 4dee 58be
00000240: 8edd 97bd 41d0 cf3d 563f 22be 9be4 fabc
00000250: c566 93bd 53e4 1abe 04e3 4ebe 2101 42be
00000260: 1079 cb3d a6e8 203e 62a8 0cbe e24b 673e
00000270: 8a19 5e3e e210 4cbe 8637 32bd 9def 6c3e
00000280: 291b f43d fddd ddbd b3fa 99bd d7fe 523e
00000290: 4aa6 283d 7d21 b3be 29fd ba3d ab91 c3bc
000002a0: 08de 133e 8bf8 5a3d a35c 3a3e 6daa 37bd
000002b0: 04ca 3f3c 8d58 0e3e 56b9 e7bd 70ad 433d
000002c0: d043 34be 38b8 023e c946 f43c c95e 223d
000002d0: bb03 9f3d 930b 433e 991e 343d d9a0 263e
000002e0: 1c82 50bd 3b9b 4cbd f26a 76be 7d6b 4ebe
000002f0: 9691 3bbe c183 c43d feb4 393d f7d7 093d
00000300: 6e7d 7e3e ae0c e63d 3c75 83be c33c b2bd
00000310: 60a5 b8bd 5b36 583d 2a20 e93d c259 c8bd
00000320: e534 973b f6e1 4ebe 59d2 8d3e 380d 3b3e
00000330: 2aca ba3d 001b 7cbd 82b0 52be fcc0 babd
00000340: 7501 4e3e 5a99 22be c37f efbc 6e76 043d
00000350: a35f f03d 556a 54be 8698 1dbe 66d4 d93b
00000360: f0e3 4ebe 1a7a 89bd 665d ee3d b313 b73d
00000370: f0c1 2cbe 98dc 783e 8bb7 3d3d 8010 443d
00000380: 388a 8b3d bf5e cdbc 961f febd 2cf8 2fbe
00000390: fd4f fd3d 7d84 233d 8582 d9bd 781c a63d
000003a0: 4e01 ed3b 831e aabb 2e7e bc3d acfe 943d
000003b0: 70d2 9e3d 34f1 16be 9003 73be b1d8 79be
000003c0: 2564 c53d c008 2e3d 6b95 143e 9bef 043d
000003d0: 1aad 3abe cfa6 813e 70ef 76bd 02be 0dbd
000003e0: cf6f 62bd ae5a 11bd 6c74 233c fca0 45be
000003f0: 6879 7ebe f511 64be 92b5 b4bc f095 d5bd

actor.2.weight f4 [256, 512]
-0.11320746 -0.028719299 -0.067470096 -0.022753408 -0.18339375 -0.10289771 0.004245072 -0.11126771
0.047394022 -0.040190425 0.0021404503 -0.017051976 0.10278554 -0.037680235 -0.21422878 -0.037944496
-0.0068603167 -0.09343297 0.055096965 -0.065065354 0.007107736 -0.06860453 -0.07785267 -0.12362922
-0.048051085 0.06637036 0.09567544 0.01545674 -0.002964023 9.8522e-05 0.05867489 -0.05936337
0.066302285 -0.10486159 0.022334348 -0.014330129 0.08316676 -0.010998491 0.030012086 -0.012966464
0.005994719 0.04063836 -0.15867807 0.0678231 -0.053801112 -0.05882419 -0.092482716 -0.035253298
0.009037682 -0.04068072 -0.025031177 -0.09920888 -0.036595117 -0.023002025 -0.12556864 0.08949023
0.030353276 0.068791375 -0.0001958445 -0.0112691 0.005648731 0.10968838 -0.083012566 -0.031069817
-0.024456734 -0.10901772 0.18784268 -0.07393835 -0.08156483 0.044139236 0.03759556 -0.012722936
0.010286462 -0.050737005 0.09353557 0.028360564 -0.04267846 -0.10561607 0.024029654 -0.046875015
-0.03821757 0.014747899 0.05092001 -0.08191697 -0.02756069 0.04600485 0.03093868 -0.042845123
-0.012483602 -0.040916003 0.030898143 -0.084095575 -0.047889076 0.16575414 -0.006627791 0.0026036939
-0.059053715 0.051538605 -0.043053515 0.08244633 0.025674008 -0.102548085 -0.04568351 -0.011860711
0.08250721 -0.033017658 -0.0045541055 -0.10611836 -0.18717058 -0.16116726 -0.092863426 0.029446295
-0.09380884 -0.06929595 -0.04481704 -0.13410626 -0.0072612055 -0.10061925 -0.02946234 -0.0009148344
-0.10659693 -0.12664367 0.122813545 0.021923376 -0.020231491 0.004735964 -0.071334705 0.06824448
-0.18731157 -0.08397973 0.07785629 0.0130753005 -0.026838757 0.048161685 -0.046887144 -0.012459893
-0.075198546 0.001984978 0.04376487 0.10509007 -0.023998767 0.006883791 -0.0569355 -0.003200582
-0.1224448 0.022007814 -0.061455484 0.055004388 -0.058043808 0.068648696 0.09504232 -0.0007533898
-0.15619001 0.06386865 0.018370548 -0.01646351 -0.01064727 0.04039043 -0.076428205 -0.1162716
-0.08309474 -0.054834202 -0.17356814 -0.13907707 -0.023196964 0.016732128 -0.025994062 0.07145438
-0.048188172 -0.039010037 0.051351577 0.02718972 -0.03891289 -0.047787916 0.043321583 -0.1132976
0.0735824 -0.1019643 0.112483434 -0.059701066 -0.05204572 0.07285254 -0.06420148 0.003669542
-0.005803698 0.09570132 -0.08522011 0.018950384 -0.12672944 -0.022158537 0.1126901 -0.0031261193
0.09312338 -0.05578359 0.04001194 0.024245868 -0.13018624 -0.18179461 -0.036262665 -0.00079323543
-0.18089071 0.033952508 -0.0024918902 -0.077066764 -0.07378048 0.0502387 -0.04569684 -0.06217377
-0.04826681 -0.012601098 0.102596775 -0.04426055 -0.028534923 0.070662454 0.010005253 0.14915645
0.023974176 -0.013121934 -0.12639901 0.0018586989 0.0035158324 0.016810218 -0.046682823 -0.026620159
-0.1619105 0.10928944 -0.02955275 -0.00074749993 -0.010127424 0.1005026 -0.014923424 0.0407149
-0.02570633 -0.0156058585 -0.08184982 -0.12444001 -0.07526693 0.09257571 0.05272977 0.053134248
-0.109926224 -0.09820359 0.085362025 -0.10319016 -0.062255636 -0.022557752 -0.14458197 0.032647744
-0.073068656 -0.04636332 -0.008032782 0.056548607 0.024953973 0.09851886 -0.01937195 0.15379697
00000000: 50d9 e7bd bc44 ebbc c32d 8abd 5b65 babc
00000010: 92cb 3bbe 09bc d2bd 3f1a 8b3b 53e0 e3bd
00000020: 3c20 423d b79e 24bd cc46 0c3b 96b0 8bbc
00000030: 3a81 d23d 9756 1abd ca5e 5bbe b06b 1bbd
00000040: 82cc e0bb c959 bfbd 5bad 613d fc40 85bd
00000050: 03e8 e83b 8880 8cbd 3871 9fbd 5131 fdbd
00000060: 37d1 44bd 2fed 873d 7cf1 c33d 443e 7d3c
00000070: 0e40 42bb 999d ce38 1555 703d 0127 73bd
00000080: 7ec9 873d acc1 d6bd 86f6 b63c ebc8 6abc
00000090: 5653 aa3d 0433 34bc e8db f53c 4b71 54bc
000000a0: 596f c43b 6974 263d 817c 22be d6e6 8a3d
000000b0: 8e5e 5cbd a2f1 70bd 9467 bdbd c365 10bd
000000c0: c912 143c d4a0 26bd 2f0e cdbc 062e cbbd
000000d0: c3e4 15bd be6e bcbc 1195 00be a746 b73d
000000e0: 6fa7 f83c 7ee2 8c3d 9c5b 4db9 08a2 38bc
000000f0: fd18 b93b 4da4 e03d 7e02 aabd 2186 febc
00000100: 7d59 c8bc af44 dfbd d559 403e fd6c 97bd
00000110: 760b a7bd 58cb 343d cdfd 193d dd73 50bc
00000120: 8c88 283c 9bd1 4fbd 948f bf3d 6a54 e83c
00000130: 9ccf 2ebd 3d4d d8bd d6d9 c43c 0400 40bd
00000140: 078a 1cbd 2ca1 713c 8091 503d 16c4 a7bd
00000150: f5c6 e1bc 956f 3c3d 1d73 fd3c 5e7e 2fbd
00000160: 0688 4cbc 8a97 27bd 1a1e fd3c 4d3a acbd
00000170: 5627 44bd 74bb 293e f12d d9bb bca2 2a3b
00000180: 4fe2 71bd 251a 533d e258 30bd 9fd9 a83d
00000190: 4c52 d23c bb04 d2bd a21e 3bbd 6d53 42bc
000001a0: 8af9 a83d 863d 07bd 9b3a 95bb 9554 d9bd
000001b0: a5a9 3fbe 0809 25be 2e2f bebd 5b39 f13c
000001c0: d91e c0bd 09eb 8dbd 1392 37bd 2753 09be
000001d0: 68ef edbb 7711 cebd 015b f1bc 7fd1 6fba
000001e0: 7e4f dabd e1ae 01be ab85 fb3d a798 b33c
000001f0: 83bc a5bc 2530 9b3b ee17 92bd c3c3 8b3d
00000200: 9bce 3fbe 91fd abbd 1e73 9f3d c939 563c
00000210: f4dc dbbc 3045 453d bc0c 40bd 9424 4cbc
00000220: b201 9abd 6816 023b cb42 333d 7639 d73d
00000230: 1099 c4bc 6d91 e13b 3335 69bd dbc0 51bb
00000240: 57c4 fabd bb49 b43c bfb8 7bbd 484c 613d
00000250: 58bf 6dbd b097 8c3d 8ca5 c23d 227f 45ba
00000260: 46f0 1fbe 91cd 823d d57d 963c 7cde 86bc
00000270: e371 2ebc 6f70 253d 6486 9cbd ce1f eebd
00000280: 932d aabd d499 60bd d9bb 31be 386a 0ebe
00000290: 8f07 bebc d111 893c 80f1 d4bc ad56 923d
000002a0: f660 45bd fdc8 1fbd 0856 523d fabc de3c
000002b0: 1f63 1fbd 43bd 43bd f971 313d 9208 e8bd
000002c0: 5fb2 963d a9d2 d0bd b75d e63d 1b89 74bd
000002d0: e52d 55bd b633 953d 117c 83bd b37c 703b
000002e0: f32c bebb 0eff c33d e287 aebd d63d 9b3c
000002f0: 5dc5 01be d285 b5bc 11ca e63d 94df 4cbb
00000300: 78b7 be3d 557d 64bd 8fe3 233d 459f c63c
00000310: 8b4f 05be 5e28 3abe 2988 14bd 21f1 4fba
00000320: 6a3b 39be c911 0b3d fb4e 23bb 2ed5 9dbd
00000330: 381a 97bd 18c7 4d3d 9c2c 3bbd eca9 7ebd
00000340: 6bb3 45bd d674 4ebc 421e d23d 8d4a 35bd
00000350: 12c2 e9bc 7ab7 903d 13ed 233c 78bc 183e
00000360: 7e65 c43c 61fd 56bc be6e 01be 969f f33a
00000370: e169 663b 95b5 893c 7d36 3fbd 8512 dabc
00000380: decb 25be 24d3 df3d 9c18 f2bc dff3 43ba
00000390: 7fed 25bc 4fd4 cd3d 6181 74bc abc4 263d
000003a0: 1596 d2bc b7af 7fbc e1a0 a7bd 67da febd
000003b0: 8c25 9abd 5598 bd3d 2cfb 573d 4ca3 593d
000003c0: 0021 e1bd f71e c9bd 49d2 ae3d 5d55 d3bd
000003d0: c4ff 7ebd 09cb b8bc 4c0d 14be a4b9 053d
000003e0: 05a5 95bd 77e7 3dbd ee9b 03bc 839f 673d
000003f0: 466c cc3c 42c4 c93d ecb1 9ebc f47c 1d3e

actor.2.bias f4 [256]
-0.14936124 -0.05173366 -0.16766068 -0.102412865 0.02509034 -0.052744333 -0.10061265 -0.11511497
0.039233588 0.018754628 -0.10416792 -0.07834523 -0.10851822 -0.04050618 0.021339476 -0.076792166
-0.0214009 -0.08442753 -0.11400229 -0.03850545 -0.09907558 -0.033542845 -0.07855231 0.061523087
0.037645333 -0.086118616 -0.0694645 -0.16390577 -0.011559215 -0.04824947 -0.11770003 -0.062566824
0.03699856 -0.037921663 -0.23283632 0.047492653 -0.09328091 -0.10035658 -0.084425196 -0.20168968
-0.17835021 -0.16945004 -0.131081 -0.05477543 -0.169888 -0.16305836 -0.039484512 -0.060631465
-0.009699278 -0.017226975 -0.08240336 -0.24255098 0.03821099 -0.038338643 -0.14562464 -0.085336305
-0.10181047 -0.09364028 -0.040778305 -0.06930187 -0.113913886 -0.0809359 -0.18365835 -0.027159344
-0.019924315 -0.17548946 -0.09604641 -0.087446846 -0.040818445 -0.10781345 -0.07078729 -0.09242759
-0.059505265 -0.104870595 -0.12441584 0.023100931 -0.003576686 -0.15417452 -0.096461296 -0.02946044
-0.007799194 -0.20382303 -0.025655909 -0.098371945 -0.13871707 -0.072050914 0.056197096 -0.051908564
-0.22669114 -0.08652238 -0.03458451 -0.091112874 0.031519547 0.0062535945 -0.03360781 0.0060263816
-0.25349945 -0.013602718 -0.06503678 -0.12672427 -0.17329842 -0.123787865 -0.18476453 -0.12121093
0.005032537 -0.07230927 -0.037602212 0.00075726886 -0.1277452 -0.17368211 -0.02458258 -0.014033601
-0.03399618 -0.09625875 -0.019739695 -0.040034972 0.039915018 0.016067166 -0.15439713 -0.13971874
-0.09560837 -0.12079628 0.02335171 -0.09814795 -0.17576887 0.018642986 -0.09697618 -0.09236713
-0.012145109 -0.031444035 -0.15104799 -0.20160374 -0.024304656 -0.07985907 -0.0047099707 -0.032790296
-0.010674647 -0.048392855 0.005755257 -0.011560439 -0.15072685 -0.05279651 -0.032971654 -0.14682285
-0.024750622 -0.053361397 0.04586109 -0.086422615 -0.058970835 -0.043602493 -0.109238304 -0.1458891
-0.109982684 -0.03775445 -0.070258856 -0.049346276 -0.05325555 -0.065071404 -0.0781205 0.110642694
0.0042149085 -0.1465667 0.014618647 -0.18183027 -0.113506265 -0.09989159 -0.09536341 -0.049164075
-0.111886285 0.04000299 -0.056371115 0.013540443 -0.1682024 -0.03165905 -0.0057685105 0.07953608
-0.14101435 -0.11577793 -0.032169133 -0.023843162 -0.1012368 -0.08450151 -0.12940818 -0.092951775
-0.048054345 -0.12830883 0.0042837383 -0.098122865 -0.013980962 0.021828342 -0.08635244 -0.04878085
-0.06636962 -0.11167672 -0.14996661 -0.005221584 -0.069632724 -0.13349564 -0.14339761 0.009601034
-0.12547876 -0.17596053 -0.057084423 -0.13105236 0.049128883 -0.12695155 -0.06791187 -0.04336389
-0.009004765 -0.16824086 -0.13558272 -0.046641342 -0.10731929 -0.07049652 -0.1650895 -0.100145526
0.024808468 -0.10528025 -0.18745823 -0.053714305 -0.113127954 -0.0678188 -0.226703 -0.14211066
-0.04270371 -0.031595252 0.01937058 -0.028488126 -0.110891044 -0.03504431 -0.18171535 -0.23278396
-0.011892026 -0.06554222 -0.15981773 -0.09170258 -0.041783128 -0.04808724 0.06316199 -0.0072635687
-0.044073053 -0.06510279 0.013592583 -0.064312555 -0.06587369 -0.09015073 -0.14996111 0.032263007
0.014577473 -0.012414889 -0.10963807 -0.099803574 -0.12678906 0.0012478265 -0.14409369 0.06661327
00000000: 27f2 18be ade6 53bd 3eaf 2bbe d6bd d1bd
00000010: 428a cd3c 710a 58bd 010e cebd 66c1 ebbd
00000020: 66b3 203d 4ea3 993c fe55 d5bd 7773 a0bd
00000030: cd3e debd cfe9 25bd 20d0 ae3c 3645 9dbd
00000040: f150 afbc 57e8 acbd 087a e9bd e4b7 1dbd
00000050: 23e8 cabd 3964 09bd 09e0 a0bd a2ff 7b3d
00000060: fe31 1a3d f55e b0bd 6743 8ebd ead6 27be
00000070: dd62 3dbc 3ca1 45bd b70c f1bd 0923 80bd
00000080: cd8b 173d bf53 1bbd a56c 6ebe a887 423d
00000090: 100a bfbd c087 cdbd 1ee7 acbd bd87 4ebe
000000a0: 70a1 36be 5084 2dbe 193a 06be 345c 60bd
000000b0: 1ff7 2dbe c5f8 26be 83ba 21bd b358 78bd
000000c0: b8e9 1ebc 961f 8dbc 18c3 a8bd 495f 78be
000000d0: 2183 1c3d fb08 1dbd a01e 15be cdc4 aebd
000000e0: 0282 d0bd 7ac6 bfbd 2707 27bd 24ee 8dbd
000000f0: af4b e9bd b9c1 a5bd ef10 3cbe 467d debc
00000100: 5138 a3bc 82b3 33be fbb3 c4bd 5517 b3bd
00000110: 3e31 27bd 4ccd dcbd edf8 90bd ad4a bdbd
00000120: cbbb 73bd 65c6 d6bd bbcd febd 2a3e bd3c
00000130: d566 6abb eddf 1dbe 808d c5bd 0557 f1bc
00000140: 6290 ffbb fcb6 50be 572c d2bc 3b77 c9bd
00000150: d90b 0ebe 6e8f 93bd ed2e 663d 139e 54bd
00000160: b921 68be a532 b1bd 7da8 0dbd 6399 babd
00000170: a41a 013d f4ea cc3b 58a8 09bd f478 c53b
00000180: aeca 81be efdd 5ebc 0132 85bd 02c4 01be
00000190: 2475 31be 7e84 fdbd ea32 3dbe 703d f8bd
000001a0: fbe7 a43b e216 94bd c704 1abd 7483 463a
000001b0: a3cf 02be b9d9 31be 6861 c9bc 30ed 65bc
000001c0: 943f 0bbd 4f23 c5bd 24b5 a1bc b6fb 23bd
000001d0: ee7d 233d 4a9f 833c 481a 1ebe 6e12 0fbe
000001e0: 52ce c3bd 0a64 f7bd 164c bf3c cb01 c9bd
000001f0: c1fc 33be 2db9 983c 739b c6bd fa2a bdbd
00000200: 47fc 46bc 76cb 00bd 53ac 1abe 3671 4ebe
00000210: 8f1a c7bc 278d a3bd 1956 9abb 1e4f 06bd
00000220: b7e4 2ebc 9637 46bd 9896 bc3b ff67 3dbc
00000230: 2458 1abe 2741 58bd 490d 07bd bb58 16be
00000240: d1c1 cabc 7b91 5abd d7d8 3b3d 57fe b0bd
00000250: 678b 71bd 8798 32bd 55b8 dfbd f463 15be
00000260: 9a3e e1bd 69a4 1abd e0e3 8fbd 521f 4abd
00000270: 7e22 5abd 2844 85bd a4fd 9fbd a398 e23d
00000280: 371d 8a3b 9515 16be 0d83 6f3c b731 3abe
00000290: f975 e8bd f693 ccbd e44d c3bd 4560 49bd
000002a0: a324 e5bd 2dda 233d 66e5 66bd bcd8 5d3c
000002b0: 403d 2cbe ecac 01bd c605 bdbb d0e3 a23d
000002c0: 1166 10be fb1c edbd c8c3 03bd bc52 c3bc
000002d0: 3d55 cfbd 210f adbd 9483 04be 805d bebd
000002e0: a2d4 44bd 6463 03be 9a5e 8c3b a4f4 c8bd
000002f0: 6810 65bc 5ad1 b23c 8cd9 b0bd 6ece 47bd
00000300: ccec 87bd c4b6 e4bd d990 19be d219 abbb
00000310: 9a9b 8ebd 15b3 08be d3d6 12be a84d 1d3c
00000320: 817d 00be ff2e 34be 5bd1 69bd 9732 06be
00000330: 5e3b 493d 96ff 01be 6115 8bbd 569e 31bd
00000340: b988 13bc 5547 2cbe 32d6 0abe fe0a 3fbd
00000350: 37ca dbbd 7b60 90bd 390d 29be 1919 cdbd
00000360: 213b cb3c 2c9d d7bd 0df5 3fbe 8803 5cbd
00000370: a1af e7bd 95e4 8abd d524 68be 7585 11be
00000380: 16ea 2ebd 066a 01bd 0daf 9e3c ee5f e9bc
00000390: d81a e3bd 9f8a 0fbd 9713 3abe eb5e 6ebe
000003a0: c6d6 42bc 003b 86bd 42a7 23be 90ce bbbd
000003b0: c924 2bbd 20f7 44bd 135b 813d 3b03 eebb
000003c0: f285 34bd 9d54 85bd 6db3 5e3c 4db6 83bd
000003d0: c9e8 86bd f2a0 b8bd 688f 19be 3726 043d
000003e0: 5ad6 6e3c d267 4bbc ed89 e0bd d165 ccbd
000003f0: fed4 01be 1c8e a33a 4c8d 13be 8a6c 883d

actor.4.weight f4 [128, 256]
-0.024269324 0.120321214 0.013684297 -0.0902249 -0.0685423 -0.0063677784 0.09189812 -0.011289222
-0.08851015 0.15456557 -0.020969437 -0.049194545 -0.004670159 0.04142133 0.046082433 -0.018928941
0.011707083 -0.039755795 0.09350564 0.086910576 -0.09718133 0.14426309 0.09616468 -0.06026889
0.0017730391 0.05922575 -0.06813082 -0.09774571 0.088237375 0.034209155 -0.040758032 -0.097126536
-0.08982451 0.043853454 -0.031942144 -0.0069169137 0.037859835 0.00081707153 -0.039696075 0.033900604
0.047942474 -0.07208016 -0.031064017 0.023008287 -0.018298486 -0.07080584 0.07398141 0.0992157
0.008363599 -0.044363637 0.025008656 0.053092204 -0.001870566 -0.08254678 0.03946092 -0.044683352
-0.03497471 -0.09084575 0.0048759454 -0.091914654 -0.040784776 -0.023517333 0.067733824 0.111091174
-0.06283619 -0.10872376 -0.094414234 0.040253863 0.08119867 0.08950942 -0.09850081 -0.081703685
-0.02984195 -0.083597496 -0.030155988 -0.2642545 0.06134473 0.096356966 0.045810256 0.019959187
0.025771512 0.06582993 0.012070415 0.016637597 -0.02906581 0.0115021765 -0.08135294 0.037162025
-0.00029180807 0.0974071 0.015887102 0.1114026 0.13992015 0.042399365 0.06250056 -0.012219584
-0.02782389 -0.0019484778 -0.09290912 -0.0369339 -0.012966114 0.035337336 0.027418124 0.023634626
0.019353008 -0.028101258 0.00704014 0.004657519 -0.09462874 0.047242347 0.06469497 -0.017239267
0.0580252 0.028329227 -0.013649784 -0.10856682 -0.06139762 -0.044747587 0.1602776 0.05535732
-0.02547057 -0.019416077 -0.06381385 0.0015768997 -0.038329285 -0.03435347 0.120024435 0.012904214
-0.018832989 0.12408221 0.031303987 0.010048716 -0.055269312 0.06317745 -0.04207723 0.08756468
-0.08713423 -0.022000067 -0.035142425 -0.26675287 -0.040145785 -0.020875443 0.05225602 0.050474767
0.0051635476 0.034451544 0.07412422 -0.11406736 0.02968102 -0.07410992 0.05436966 -0.035692256
-0.12913704 -0.12160054 -0.031150097 -0.13441639 -0.045262326 0.009360543 -0.06948302 -0.007273058
0.083383456 -0.017502319 -0.03323146 -0.029908083 -0.014994485 0.033767484 -0.17603274 -0.127569
0.22261043 0.11268175 0.14081109 -0.01950517 -0.09870886 -0.22563796 -0.05497441 -0.1505766
0.02379409 0.009873433 0.1396622 -0.07398782 0.010470462 -0.06428542 0.06608736 0.005054841
0.039281465 0.1081956 0.0026546353 0.043551985 0.018515801 -0.021604072 -0.076379545 -0.052417144
0.060676023 -0.022128198 -0.060107198 -0.14960451 0.077041075 0.026344813 -0.03946628 0.056735344
0.0909938 -0.022524543 0.0654596 0.008546246 -0.015802484 -0.0666901 -0.21908677 -0.059812814
-0.00015435924 0.013457479 0.02435341 -0.10959555 -0.009851231 0.124420516 -0.055609625 -0.09364973
-0.03348108 0.032209307 -0.031862017 -0.020290162 -0.032049436 -0.062216967 0.076812394 0.01977558
0.011110886 0.036103565 -0.09540413 -0.05697123 0.085976526 -0.022157792 0.15599611 0.052023847
0.06682375 0.05586962 0.103793934 0.08848467 0.01434892 -0.05393194 0.07310267 -0.0721992
0.16111976 -0.12960908 0.054517437 -0.010275982 0.15936872 0.034574915 0.0006618742 -0.005004291
-0.016330374 -0.0699606 0.010706768 -0.039237563 0.016128933 0.09154079 -0.041098565 -0.056076225
00000000: 76d0 c6bc f86a f63d 1a34 603c d5c7 b8bd
00000010: e85f 8cbd cca8 d0bb 1535 bc3d 6ef6 38bc
00000020: cf44 b5bd 7046 1e3e 19c8 abbc 3880 49bd
00000030: 2208 99bb 6aa9 293d efc0 3c3d de10 9bbc
00000040: 11cf 3f3c f9d6 22bd e37f bf3d 2cfe b13d
00000050: 0107 c7bd b4b9 133e fdf1 c43d 83dc 76bd
00000060: 5265 e83a b396 723d 2c88 8bbd e72e c8bd
00000070: ccb5 b43d e61e 0c3d e5f1 26bd 47ea c6bd
00000080: eaf5 b7bd ae9f 333d c4d5 02bd 47a7 e2bb
00000090: ea12 1b3d be30 563a 5a98 22bd 5cdb 0a3d
000000a0: 545f 443d c39e 93bd f779 febc e07b bc3c
000000b0: b5e6 95bc a702 91bd 9183 973d 9a31 cb3d
000000c0: 7a07 093c a5b6 35bd f4de cc3c 3677 593d
000000d0: c82d f5ba 490e a9bd c6a1 213d e405 37bd
000000e0: a441 0fbd 560d babd 65c6 9f3b c03d bcbd
000000f0: f00d 27bd 6ca7 c0bc 08b8 8a3d c583 e33d
00000100: 43b0 80bd 90aa debd 405c c1bd 3ce1 243d
00000110: 7d4b a63d b750 b73d cbba c9bd 4354 a7bd
00000120: 1b77 f4bc 2a35 abbd b109 f7bc 5e4c 87be
00000130: 9d44 7b3d cd56 c53d 89a3 3b3d 7381 a33c
00000140: c71e d33c d8d1 863d fdc2 453c 924b 883c
00000150: 6c1b eebc a073 3c3c 5f9c a6bd 3537 183d
00000160: d1fd 98b9 607d c73d ab25 823c 0c27 e43d
00000170: 3a47 0f3e f5aa 2d3d 4b00 803d a634 48bc
00000180: edee e3bc 1164 ffba 2347 bebd 0048 17bd
00000190: d36f 54bc e2bd 103d f99b e03c 679d c13c
000001a0: 338a 9e3c 9c34 e6bc fab0 e63b 1a9e 983b
000001b0: b6cc c1bd 3181 413d cc7e 843d 5d39 8dbc
000001c0: d5ab 6d3d b212 e83c 58a3 5fbc 4858 debd
000001d0: 127c 7bbd 3f49 37bd d01f 243e 5bbe 623d
000001e0: a8a7 d0bc 770e 9fbc d6b0 82bd f9af ce3a
000001f0: 2bff 1cbd 39b6 0cbd 5fcf f53d 326c 533c
00000200: a447 9abc d01e fe3d 9c38 003d 5fa3 243c
00000210: 1362 62bd 2e63 813d 2c59 2cbd 1c55 b33d
00000220: 6e73 b2bd 7c39 b4bc 81f1 0fbd d593 88be
00000230: e86f 24bd fa02 abbc 690a 563d a1be 4e3d
00000240: fa32 a93b 101d 0d3d 70ce 973d 269c e9bd
00000250: 9c25 f33c f1c6 97bd b8b2 5e3d 0b32 12bd
00000260: 803c 04be b409 f9bd 7d2e ffbc 73a4 09be
00000270: fd64 39bd f75c 193c 1d4d 8ebd d552 eebb
00000280: f2c4 aa3d 0661 8fbc b61d 08bd cc01 f5bc
00000290: 6eab 75bc c64f 0a3d ed41 34be 73a1 02be
000002a0: fdf3 633e b0c5 e63d c830 103e 4ec9 9fbc
000002b0: df27 cabd a30d 67be d92c 61bd c130 1abe
000002c0: d3eb c23c 2ec4 213c 9c03 0f3e ed86 97bd
000002d0: 4d8c 2b3c 13a8 83bd cf58 873d 14a3 a53b
000002e0: 9ae5 203d a895 dd3d 64f9 2d3b 9163 323d
000002f0: 73ae 973c 06fb b0bc e16c 9cbd 5cb3 56bd
00000300: 6c87 783d 3246 b5bc f732 76bd ed31 19be
00000310: b6c7 9d3d 14d1 d73c 65a7 21bd 5263 683d
00000320: f55a ba3d 6485 b8bc af0f 863d 8e05 0c3c
00000330: 3674 81bc d294 88bd 4858 60be 48fe 74bd
00000340: 7edb 21b9 c27c 5c3c cd80 c73c a273 e0bd
00000350: 0f67 21bc 2fd0 fe3d ebc6 63bd 6ecb bfbd
00000360: 7523 09bd e8ed 033d bf81 02bd 8e37 a6bc
00000370: 4546 03bd 38d7 7ebd d14f 9d3d 6600 a23c
00000380: 6f0a 363c 55e1 133d 3e63 c3bd aa5a 69bd
00000390: 7614 b03d 4284 b5bc 72bd 1f3e f516 553d
000003a0: e4da 883d 8bd7 643d ea91 d43d 7337 b53d
000003b0: bc17 6b3c bde7 5cbd dab6 953d 2ddd 93bd
000003c0: 94fc 243e 3eb8 04be ad4d 5f3d 985c 28bc
000003d0: 8e31 233e 6d9e 0d3d a081 2d3a 09fb a3bb
000003e0: 47c7 85bc 8147 8fbd 716b 2f3c 91b7 20bd
000003f0: d320 843c bd79 bb3d f856 28bd 2fb0 65bd

actor.4.bias f4 [128]
0.0009604471 0.010640809 -0.07154533 0.0006803901 0.019170063 0.03759912 -0.07507729 -0.08046464
-0.11548803 -0.060248703 -0.18638174 -0.014926871 -0.0797679 -0.006082515 -0.1534706 -0.16102418
-0.013400765 -0.0771984 -0.042812195 -0.17293644 -0.09951359 -0.18506525 0.06880214 -0.034570657
-0.1378041 -0.10434999 -0.071395695 -0.10859649 -0.12802719 -0.06257564 -0.07410185 0.083631076
-0.047626253 0.016255883 0.067008704 -0.058454987 -0.15201333 -0.06926896 -0.030292496 -0.0993184
-0.056227777 -0.07219067 -0.040002797 -0.055273894 -0.05481866 -0.091824576 0.050817914 -0.057028227
-0.067794725 0.0057291905 -0.12728941 0.019961338 -0.02063166 -0.047522835 -0.067725495 0.03383233
-0.10245618 -0.15087652 -0.019930476 -0.086387634 0.011426869 -0.07688521 -0.06445862 -0.08385891
-0.07713364 -0.20066115 -0.0713746 -0.080135904 -0.17258473 -0.18414609 -0.17848775 -0.03403578
-0.13253447 -0.038846135 -0.059005015 -0.08584439 -0.08949796 0.011905934 -0.07785951 -0.11291561
-0.09006276 0.0025279936 -0.12982966 -0.24489655 0.026290147 -0.017005475 -0.04613994 0.04037882
-0.06311469 -0.007902217 -0.0650139 0.002345861 -0.017725881 -0.05437319 0.0028238818 -0.028081855
-0.07183496 -0.063153505 -0.09903431 -0.023383902 -0.14175887 -0.09042857 -0.06558712 -0.19373801
-0.12253153 -0.05281454 -0.1406247 -0.015502771 -0.048070036 -0.075886615 -0.0026158344 -0.053879645
-0.07465162 -0.096521504 -0.107508056 -0.13296779 -0.055441022 0.03464929 -0.019988084 0.00051052135
-0.06347988 -0.013771025 -0.10656258 -0.13016832 0.022630678 -0.12221702 0.0122217685 -0.01152344
00000000: 84c6 7b3a ca56 2e3c 5c86 92bd 355c 323a
00000010: 890a 9d3c 8901 1a3d 1fc2 99bd a5ca a4bd
00000020: fd84 ecbd 58c7 76bd dbda 3ebe d68f 74bc
00000030: 5a5d a3bd d64f c7bb 6627 1dbe 86e3 24be
00000040: e28e 5bbc 321a 9ebd d75b 2fbd 4016 31be
00000050: c8cd cbbd bf81 3dbe 23e8 8c3d f699 0dbd
00000060: 851c 0dbe 73b5 d5bd e837 92bd d667 debd
00000070: 8f19 03be a827 80bd b6c2 97bd c546 ab3d
00000080: bf13 43bd 0f2b 853c dc3b 893d 7f6e 6fbd
00000090: 62a9 1bbe e2dc 8dbd f827 f8bc 7267 cbbd
000000a0: 194f 66bd b4d8 93bd f9d9 23bd e166 62bd
000000b0: 8889 60bd 860e bcbd 7226 503d 6e96 69bd
000000c0: f6d7 8abd efbb bb3b 2858 02be f685 a33c
000000d0: ba03 a9bc 4ea7 42bd aab3 8abd c593 0a3d
000000e0: 8cd4 d1bd 607f 1abe 3d45 a3bc 00ec b0bd
000000f0: c337 3b3c fe75 9dbd e202 84bd 38be abbd
00000100: 3ef8 9dbd 1e7a 4dbe d92c 92bd 4b1e a4bd
00000110: 0dba 30be cb90 3cbe 7ec5 36be 1a69 0bbd
00000120: 1eb7 07be 201d 1fbd 3eaf 71bd 2fcf afbd
00000130: b54a b7bd 1b11 433c cf74 9fbd 4d40 e7bd
00000140: d372 b8bd b2ac 253b 11f2 04be 29c6 7abe
00000150: 6f5e d73c 114f 8bbc 3cfd 3cbd 4364 253d
00000160: 4642 81bd 4d78 01bc 0226 85bd 04bd 193b
00000170: de35 91bc 6cb6 5ebd e010 393b eb0b e6bc
00000180: 351e 93bd a056 81bd 80d2 cabd 998f bfbc
00000190: 3d29 11be 9d32 b9bd 8a52 86bd 4263 46be
000001a0: d0f1 fabd 0f54 58bd ecff 0fbe 56ff 7dbc
000001b0: 16e5 44bd 716a 9bbd 6b6e 2bbb e7b0 5cbd
000001c0: f3e2 98bd 11ad c5bd 2f2d dcbd b528 08be
000001d0: 2016 63bd 6aec 0d3d 0dbe a3bc 82d4 053a
000001e0: bd01 82bd de9f 61bc 7b3d dabd d84a 05be
000001f0: f963 b93c eb4c fabd d03d 483c cfcc 3cbc

actor.6.weight f4 [12, 128]
-0.001107799 0.025919983 0.020592425 -0.063077554 -0.028850773 -0.014383852 0.015576649 0.030020697
-0.023579976 0.019604204 -0.0009650747 0.07760746 -0.007201892 0.010921516 0.015007123 0.038222007
-0.0041829073 0.015118462 -0.020754132 -0.020352112 0.009893426 -0.06902259 -0.00562868 -0.02970701
0.03578972 0.01801434 0.046324868 -0.010809279 0.010096119 -0.04230255 -0.03710891 -0.07102662
0.042812724 0.011857382 0.035189584 0.035726294 0.04156252 0.021923557 0.033570956 0.016081372
-0.0050943866 0.0730309 -0.05221738 0.0034755392 0.028061023 -0.006297014 -0.06797005 0.02000255
-0.035192788 -0.003669525 0.04435157 -0.047910698 0.0030485822 0.022210915 -0.051723745 -0.04526356
-0.062104918 -0.011681366 -0.017066997 0.030244615 -0.00027860576 0.035449028 -0.03845991 -0.0053317407
0.025437342 0.030330684 -0.01735881 0.11379865 0.02890425 0.03625799 0.03311598 0.052497055
-0.019043399 0.003388282 -0.00050893635 -0.101114444 0.02104203 -0.046339598 -0.021525417 -0.010154384
-0.026321894 -0.024693064 -0.051752083 0.022788772 0.008104271 0.045268662 0.036341354 -0.0010412941
-0.00020753515 0.0066292468 0.016236108 0.0076318183 0.018855551 -0.017627712 0.04432479 -0.06825431
-0.01508946 -0.012661505 -0.012409532 0.027389389 0.067558415 0.075821206 -0.08016806 -0.00057060225
0.024705332 0.053253386 0.027011964 -0.07203695 0.008205792 0.043586668 -0.022874303 0.01966002
-0.0032848555 0.04961891 0.013045459 -0.016667161 -0.04097454 -0.054872613 0.0025950866 -0.05643565
0.004026753 -0.027680594 -0.015308135 -0.015981043 -0.018490884 -0.043097973 -0.037711643 -0.009640391
-0.043507405 0.029641697 -0.0045197867 0.010352716 0.0007090059 0.040552456 0.011532265 -0.052290123
-0.008336085 -0.0318799 -0.03905567 -0.044449367 0.07456354 -0.02573818 -0.0506312 0.0020067818
-0.012815582 0.028593754 -0.038620103 -0.012315622 0.009990628 -0.053915028 -0.008121912 0.07794826
-0.024923827 -0.02710726 0.021846905 -0.01855183 -0.0031905991 -0.0047050696 0.029815434 0.0067636915
-0.040020578 0.036103774 0.020352822 -0.011328618 -0.09811532 -0.066726886 -0.010199603 -0.026338208
-0.00032286227 0.0019154939 0.044263612 0.036017902 -0.055002186 0.0023317095 0.015789993 0.0057469383
0.0058897263 0.06373545 -0.04339623 -0.034565967 -0.0026674727 0.03838957 0.03593057 0.06923934
-0.025371395 0.021686452 0.005267809 0.027169308 0.0029347034 0.0062407595 0.011798758 0.02533243
0.044816896 -0.061452672 -0.032162387 -0.045484256 -0.09371081 -0.03639935 -0.088992916 0.09869742
-0.004643443 0.03506218 -0.03366763 0.048094325 -0.033346042 0.03206854 0.00093109184 0.009443273
0.010277809 0.027128583 0.025552226 -0.0098592825 0.07765161 0.018546203 -0.026347226 -0.031407624
0.039403368 -0.035670202 -0.045170985 0.032452747 0.030355224 -0.009970756 0.022853993 -0.01665368
-0.04322123 0.048181135 -0.013616558 0.02794855 0.004233192 -0.01558764 0.00011007468 -0.06889981
0.014699746 -0.0036318786 0.03771426 -0.030660782 0.032455966 -0.024334084 -0.047550704 -0.014034729
-0.0027970546 -0.033530306 -0.06102201 0.0018116786 -0.026667804 -0.023667555 -0.022193424 0.04257968
0.0037133829 0.027138758 0.024797177 0.0495295 0.080096416 0.0041758497 -0.012282328 0.0129251825
00000000: 9133 91ba 2556 d43c 72b1 a83c ce2e 81bd
00000010: 7558 ecbc 3faa 6bbc 3435 7f3c f7ed f53c
00000020: cb2a c1bc ff98 a03c 11fd 7cba a9f0 9e3d
00000030: d9fd ebbb 29f0 323c 70e0 753c ae8e 1c3d
00000040: c510 89bb 6db3 773c 9204 aabc 79b9 a6bc
00000050: 0918 223c b75b 8dbd ca70 b8bb 1e5c f3bc
00000060: 3e98 123d cf92 933c 25bf 3d3d 6719 31bc
00000070: 316a 253c 7045 2dbd 83ff 17bd 6876 91bd
00000080: 655c 2f3d 7745 423c f422 103d bc55 123d
00000090: 763d 2a3d 0899 b33c b381 093d 15bd 833c
000000a0: d0ee a6bb 3991 953d e4e1 55bd dfc5 633b
000000b0: 3be0 e53c 2f57 cebb e233 8bbd 63dc a33c
000000c0: 5026 10bd 6a7c 70bb fea9 353d 023e 44bd
000000d0: b9ca 473b aaf3 b53c 47dc 53bd 4866 39bd
000000e0: ba61 7ebd 3363 3fbc 16d0 8bbc 8ec3 f73c
000000f0: d511 92b9 0033 113d 2388 1dbd e2b5 aebb
00000100: f961 d03c 0e78 f83c 1034 8ebc 440f e93d
00000110: 9bc8 ec3c 4283 143d 9fa4 073d 2707 573d
00000120: e700 9cbc f00d 5e3b 246a 05ba 1715 cfbd
00000130: 5660 ac3c 97ce 3dbd 1256 b0bc 935e 26bc
00000140: 03a1 d7bc 1c49 cabc fef9 53bd 85af ba3c
00000150: c7c7 043c a26b 393d acda 143d 087c 88ba
00000160: cb9d 59b9 273a d93b 9601 853c 5514 fa3b
00000170: f576 9a3c fe67 90bc e98d 353d eac8 8bbd
00000180: c839 77bc 3372 4fbc 5a51 4bbc b65f e03c
00000190: 115c 8a3d 2648 9b3d 272f a4bd 7894 15ba
000001a0: d662 ca3c 3920 5a3d 3248 dd3c 1c88 93bd
000001b0: 9671 063c ef87 323d e462 bbbc 0d0e a13c
000001c0: bb46 57bb 333d 4b3d 9fbc 553c 9289 88bc
000001d0: ebd4 27bd 1bc2 60bd 5412 2a3b 1129 67bd
000001e0: daf2 833b 6ac2 e2bc f9ce 7abc adea 82bc
000001f0: 327a 97bc 8087 30bd 8677 1abd bbf2 1dbc
00000200: d234 32bd 25d3 f23c b81a 94bb 709e 293c
00000210: 95dc 393a 551a 263d d3f1 3c3c 2b2e 56bd
00000220: 1394 08bc 7f94 02bd d7f8 1fbd 8a10 36bd
00000230: c5b4 983d e0d8 d2bc a962 4fbd 3684 033b
00000240: 72f8 51bc 733d ea3c 1d30 1ebd 76c7 49bc
00000250: bbaf 233c 01d6 5cbd c511 05bc 56a3 9f3d
00000260: 0e2d ccbc 0b10 debc 48f8 b23c 02fa 97bc
00000270: 5f19 51bb fc2c 9abb 7f3f f43c f5a1 dd3b
00000280: 9eec 23bd 8de1 133d f6ba a63c ab9b 39bc
00000290: aff0 c8bd 1ba8 88bd 3c1c 27bc 3ac3 d7bc
000002a0: d745 a9b9 4f11 fb3a c34d 353d 8287 133d
000002b0: f949 61bd 98cf 183b 045a 813c d050 bc3b
000002c0: 9bfe c03b bb87 823d 3fc0 31bd 0b95 0dbd
000002d0: c4d0 2ebb 623e 1d3d ef2b 133d 5bcd 8d3d
000002e0: acd7 cfbc c9a7 b13c 969d ac3b 2b92 de3c
000002f0: 2754 403b 497f cc3b 944f 413c f585 cf3c
00000300: ec91 373d ccb5 7bbd b5bc 03bd b34d 3abd
00000310: 74eb bfbd 7c17 15bd eb41 b6bd df21 ca3d
00000320: 0628 98bb 5c9d 0f3d 12e7 09bd 8efe 443d
00000330: dc95 08bd 4d5a 033d 8414 743a f5b7 1a3c
00000340: 4164 283c c33c de3c e752 d13c d488 21bc
00000350: cf07 9f3d 35ee 973c 23d6 d7bc 48a5 00bd
00000360: 6d65 213d eb1a 12bd 3605 39bd 2ced 043d
00000370: 85ab f83c 625c 23bc 4c38 bb3c 4c6d 88bc
00000380: bf08 31bd 9559 453d fc17 5fbc 5cf4 e43c
00000390: 97b6 8a3b 4d63 7fbc e5d7 e638 581b 8dbd
000003a0: 34d7 703c d004 6ebb 457a 1a3d 522c fbbc
000003b0: 8cf0 043d 4658 c7bc 87c4 42bd ecf1 65bc
000003c0: ca4e 37bb 1357 09bd 37f2 79bd d975 ed3a
000003d0: 7076 dabc 76e2 c1bc fcce b5bc 0868 2e3d
000003e0: 3a5c 733b 1a52 de3c 7323 cb3c 72df 4a3d
000003f0: 9709 a43d 91d5 883b d13b 49bc 25c4 533c

actor.6.bias f4 [12]
-0.014519671 0.058641274 -0.0642862 0.100624084 0.0236911 -0.008477078 -0.08853956 -0.042836856
0.07785871 0.04922268 0.122167945 0.1320077
00000000: eae3 6dbc d531 703d 7ca8 83bd 0014 ce3d
00000010: d613 c23c 71e3 0abc 3b54 b5bd b375 2fbd
00000020: 6374 9f3d b99d 493d 3033 fa3d 072d 073e
